rescourse/代码/第三节，回归实战代码/covid/model_save/best_model.pth (torch, 4255 bytes, 3 tensors)

weight f4 [64, 6]
000000 77 52 bd 3e 7c da 20 be 24 81 de 3d 73 5d 2d 3e
       0.36976978 -0.15708345 0.10864475 0.1693018
000010 e8 2f 9c be 67 c6 ee 3d d4 be ae 3e a5 fb 31 3f
       -0.305053 0.11658936 0.34129965 0.69524604
000020 57 cd fa be 0f c7 77 3c 53 c0 00 3f b3 c3 71 bd
       -0.48984787 0.015123143 0.50293463 -0.059024524
000030 cf 15 bb bc f5 de 2e be e1 43 6b 3d 02 42 28 3e
       -0.022837548 -0.17077239 0.05743778 0.1643143
000040 f5 fb 88 3e 1a ea 52 3e de b9 8d 3e 48 6f 27 be
       0.26754728 0.20597115 0.27680868 -0.16351044
000050 0e 6f 37 be 2b c3 9c be 31 c8 79 be 8e 06 8c 3d
       -0.17913458 -0.3061765 -0.24392773 0.06837188
000060 85 b3 c2 3e f7 12 8a be e5 b1 16 3e 65 60 73 be
       0.38027588 -0.26967594 0.14716299 -0.2376724
000070 fa 2d 5e 3d c7 84 39 3e 80 f7 6c be 0f 9f 82 3e
       0.054243065 0.18117057 -0.23141289 0.25511977
000080 17 87 b1 be 24 26 c9 3d cd fe 77 3d 4b 93 92 3e
       -0.34673378 0.09821728 0.06054573 0.28628
000090 39 d9 8b 3e b1 9b c7 3e e9 16 a0 3d 17 df 1e 3e
       0.27314165 0.3898597 0.0781687 0.1551479
0000a0 b3 f1 7d be 5b 9e 9f bd 2d 1a d8 3d 1e ef d9 bb
       -0.24799232 -0.07793876 0.10551868 -0.0066508194
0000b0 f1 ed 1e bd 8e 53 0c bd e5 fb 0c 3e 06 aa 10 bd
       -0.038801137 -0.03425937 0.13767965 -0.035318397
0000c0 25 e7 95 be a0 31 c8 3d 96 c3 82 be b0 af 20 3c
       -0.29277912 0.0977509 -0.25539845 0.009807512
0000d0 a4 61 7e be 8a 5a 9c 3d ca ae 97 be 7a f0 a6 be
       -0.24841934 0.076344565 -0.2962554 -0.32605344
0000e0 df be ac 3e 85 be 72 3c 3f b2 94 3e c1 e9 0c 3e
       0.33739373 0.014815931 0.2904224 0.13761045
0000f0 36 b5 2d be 3f b4 f9 3e 4f d0 92 3e 41 1b 87 be
       -0.16963658 0.4877033 0.28674552 -0.2638798
000100 ec 2e 95 3e 7d dc 7c bd 3f ff 11 be 6f 87 57 3e
       0.2913736 -0.06173371 -0.14257525 0.21047758
000110 60 77 5b 3d 4e cb 8b bd d7 5e 2f be e9 4f e8 bd
       0.05358064 -0.06825887 -0.17126022 -0.11343367
000120 d9 58 ae bc 8e 46 16 be 24 c3 83 3d 42 81 6d 3e
       -0.0212826 -0.14675352 0.064337045 0.23193839
000130 f2 ac 54 be a8 82 0c bd 5d b0 aa 3e 58 41 bd be
       -0.20769098 -0.03430429 0.3333768 -0.36963916
000140 fb c9 5e be ce 37 9d 3e 3f 39 52 be 8b bb c5 be
       -0.21756737 0.30706638 -0.2052965 -0.38619646
000150 db e4 4b bc e3 eb a1 bd 5d 8e 7b 3e b8 89 6a be
       -0.0124447 -0.0790632 0.24566026 -0.22904098
000160 3a 0f 97 3d 13 11 32 3e 46 be 63 3e 44 e4 f0 bd
       0.07375951 0.17389326 0.22240552 -0.11762288
000170 dc 68 86 be 47 00 95 3e fb 50 5c be 29 20 9e 3d
       -0.26251876 0.29101774 -0.21515267 0.07720978
000180 67 29 16 be d3 d4 97 3e e3 6d b4 3e cd ee 9b be
       -0.14664231 0.2965456 0.35240087 -0.30455628
000190 53 a3 2c 3e a3 67 64 be d1 b5 3e 3e c3 ec b4 3e
       0.16859178 -0.2230516 0.18624045 0.35336885
0001a0 4e f2 78 be 0e 4a b3 bc b6 e1 8c 3e 03 2f a7 be
       -0.24311182 -0.021885898 0.27515954 -0.32653055
0001b0 af 4b 93 be d3 93 cb 3d 57 a0 98 3e 1a 3f ef be
       -0.2876868 0.099403046 0.2980983 -0.4672783
0001c0 44 85 89 3e da e1 80 be bb 2a 08 bd 3c c4 04 be
       0.26859486 -0.2517231 -0.033243876 -0.12965482
0001d0 eb 65 0a 3e ef 3e 04 3e a7 68 8a be 9c 2d f5 3d
       0.13515441 0.12914632 -0.27032968 0.1197159
0001e0 e9 83 60 3e cc 93 c2 be 96 3f ba 3d 2a 5c c5 3d
       0.2192532 -0.38003385 0.09094159 0.096367195
0001f0 5c 12 7d 3e c9 f3 a8 bd 4c e1 2c be 57 0c 53 3f
       0.24714035 -0.08249623 -0.16882819 0.82440704
000200 e7 ed 59 3e 20 9f d0 bd 2d e2 a0 bd 9d 3d 67 bd
       0.21282159 -0.10186601 -0.078556396 -0.056455243
000210 ca ee c3 3d 7a 0b 54 bc c1 5d 2b be 9b 20 c9 3e
       0.0956703 -0.012942189 -0.16734983 0.39282688
000220 06 b2 8f bd 63 e2 61 be 1e 29 be 3d 55 51 cb 3e
       -0.07016377 -0.22059016 0.09285186 0.3971049
000230 8a 0a 8e 3b c6 b2 fc 3d 58 50 7e be e6 e5 79 be
       0.0043347524 0.12338786 -0.24835336 -0.24404106
000240 f2 de 52 be 48 27 fe 3d d6 ac 0c 3d 72 6c 6b be
       -0.2059286 0.12409836 0.034344517 -0.22990587
000250 cd b5 dc 3d 0b 16 74 3e 13 95 8e be 19 ae 34 3e
       0.10776863 0.23836534 -0.2784811 0.17644538
000260 ae 12 cd bc 16 3d e1 bd f4 d8 c7 3e bf 7f 80 3d
       -0.025033321 -0.10997979 0.3903271 0.06274366
000270 34 be b3 bd ec 85 79 3e 3c e2 5a be fb 7d 5c 3d
       -0.08776513 0.24367493 -0.21375364 0.05383108
000280 0d 39 ef bd 2a da 8b be 6d 6f 90 be fe 12 7b be
       -0.116808034 -0.27314883 -0.2821001 -0.24518964
000290 5f 5b 92 be 74 9c b2 3e 92 27 36 be d0 16 71 3e
       -0.28585336 0.3488499 -0.17788532 0.23543859
0002a0 fd 5c b3 3d ad 9c 27 3e b8 18 51 be d1 20 c2 3c
       0.087579705 0.16368361 -0.20419586 0.023697289
0002b0 ce 68 39 3b e1 af 1a 3d 93 53 3a be 4a 0a 89 bd
       0.0028291228 0.037765387 -0.18195944 -0.066914156
0002c0 56 a0 66 bd 2b 2f 62 3e 25 fc 39 be e0 4f ca 3e
       -0.056305252 0.22088306 -0.18162592 0.39514065
0002d0 5c fa 91 3e 98 a6 43 be 39 d2 e1 bd f3 ed fc bb
       0.28511322 -0.19106519 -0.11026425 -0.0077187954
0002e0 58 56 9c 3e 2d a5 a9 bd 77 e2 25 be fb 03 d7 3c
       0.30534625 -0.08283458 -0.1619967 0.026247015
0002f0 be 39 72 be 6d 56 78 3d 6b 57 b4 3e a7 a1 a6 3e
       -0.2365484 0.060629297 0.35222945 0.32545206
000300 2f 00 c5 3e 83 75 34 3e a7 6e 3b 3d 77 51 a9 be
       0.38476703 0.17622952 0.045759823 -0.33069965
000310 69 0b a5 3e 51 5c cb bd 9f d1 f7 bd 7c 88 57 3e
       0.32235268 -0.09929717 -0.12100529 0.21048158
000320 1c 36 79 3e 6d a7 f5 3c 57 81 a7 be 9f 23 0a be
       0.24337047 0.029987061 -0.32715866 -0.13490151
000330 bf db 67 be 62 e0 85 3e ca d0 d5 3b c7 72 0f 3e
       -0.2264242 0.26147753 0.0065251337 0.14008628
000340 09 b5 da bd 97 a2 a8 bd 56 58 59 bd 4a 33 1f 3f
       -0.10679061 -0.082341366 -0.05306276 0.62187636
000350 38 c0 14 3e 75 4e e5 bd b9 35 b1 3d eb 05 ec bc
       0.1452645 -0.11196605 0.08652825 -0.028811416
000360 8d fc 35 be 6f da a3 3e 25 0d de bd 49 56 2d be
       -0.17772122 0.3200259 -0.10842351 -0.16927446
000370 d8 b3 0a 3f 64 c0 65 be 14 38 75 be 9a 6e a6 3e
       0.5418067 -0.22436672 -0.23947173 0.32506257
000380 71 f5 55 3d 4a 1e 59 be fe 47 9c be 44 f3 77 3e
       0.052236024 -0.2120296 -0.30523676 0.24213892
000390 70 ad 7e be a1 ec d5 3e ab 95 d3 be a6 aa a5 3e
       -0.24870849 0.41782096 -0.41325125 0.32356757
0003a0 28 29 bb bd 78 ab 64 3e 06 41 90 bd de 11 96 3e
       -0.09138709 0.22331035 -0.07043652 0.29310507
0003b0 a9 75 8c bd 42 4f eb 3d e3 96 bc be 17 0b aa be
       -0.068583794 0.114897266 -0.36833867 -0.33211586
0003c0 0c 7e 1c 3e 27 86 23 bc b1 37 ac 3d 72 39 a5 3d
       0.15282458 -0.009980715 0.0840906 0.080675974
0003d0 9d fd ac be cb a9 9e 3e 5d 8f c1 bd 62 11 67 3b
       -0.33787242 0.30988917 -0.094511725 0.0035258164
0003e0 39 49 27 bd dc b9 b0 3e fd 1a c0 3e 63 0d 26 be
       -0.040841315 0.345168 0.3752059 -0.16216044
0003f0 d4 87 98 be f0 56 22 3e 71 71 3e 3e ff 0b ba be
       -0.2979113 0.15853477 0.18597962 -0.36337277

bias f4 [64]
000000 29 d9 b3 bd fe 26 da 3f 6c e0 a0 3e 91 e7 a8 be
       -0.087816544 1.704315 0.3142122 -0.3298917
000010 69 61 0a be 97 e7 b7 be 08 64 80 3f 5f 5a c4 be
       -0.13513722 -0.35918877 1.0030527 -0.38350198
000020 bb d2 c8 be 70 73 b1 3b 3d c2 b3 3e bb aa 26 bd
       -0.39223275 0.0054153726 0.3510913 -0.040690165
000030 1d 19 e6 3d 86 86 b1 be eb f6 d7 3e 83 ca a2 3e
       0.11235259 -0.34672946 0.4218057 0.3179513
000040 64 1c 6c 3e 7c 57 4f bd b9 22 5a be 4a b6 c5 be
       0.23057705 -0.05062054 -0.21302308 -0.38615638
000050 8c ac 0c be 42 d8 8e 3f fb 69 f0 bc df b6 22 3f
       -0.13737696 1.1159747 -0.02934741 0.6356029
000060 bf 5d 73 3e 6f 5e 26 3f 68 20 a6 3c cb 71 5c be
       0.2376623 0.64987844 0.020279124 -0.21527784
000070 f2 1f e1 3b 3d c2 9c 3e 12 36 d1 3e 41 93 29 bd
       0.0068702633 0.30616942 0.40861565 -0.041400198
000080 a2 e5 52 3f 01 f1 04 be 35 54 51 3e 32 c7 96 3f
       0.8238164 -0.1298256 0.20442279 1.177954
000090 ae e4 4d 3e 34 d3 fb bd 97 32 a2 3e 5c 39 8c be
       0.20106766 -0.12296143 0.31679222 -0.27387512
0000a0 65 e7 1e 3f 88 d2 b1 be b2 50 94 be 47 5a df 3d
       0.6207183 -0.34730935 -0.28967816 0.10905891
0000b0 00 d1 9c 3f a7 c6 03 3f 40 1c 65 3f 4c 5d 6d 3f
       1.2251282 0.51474994 0.8949623 0.92720485
0000c0 de 84 bd 3c 2d bc 43 bd 20 17 34 3f ed 0a 40 3f
       0.023134645 -0.04778688 0.70347786 0.7501667
0000d0 c0 1a 41 3e 54 35 ab 3f 6e cd 56 3f eb 13 bc bd
       0.1885786 1.337565 0.8390721 -0.091834866
0000e0 19 6a c0 3e ff b1 fb 3d 67 a1 38 3f bb ac 36 be
       0.37580946 0.122898094 0.7212128 -0.17839329
0000f0 86 e4 44 be c1 fd 02 3f 2e f5 bf be 80 94 43 3e
       -0.192278 0.5116845 -0.37491745 0.19099617

weight f4 [1, 64]
000000 77 7a f0 bd 3a 7f 9c 3f 5c 2b 48 3e 66 e3 25 be
       -0.11742108 1.2226326 0.1954779 -0.16200027
000010 33 b7 bf bd 6a 80 f1 bb b9 2f 39 3f 65 44 d7 3d
       -0.09361114 -0.0073700445 0.72338444 0.10511092
000020 4f 20 0c be 03 0b 78 be 49 9a e5 3e 50 19 8e 3d
       -0.136842 -0.2422295 0.44844273 0.06938422
000030 92 98 86 bb 48 e1 60 be 6b 56 80 3e 9d e2 66 3e
       -0.0041075433 -0.21960938 0.25065932 0.22547384
000040 10 af 6c 3e 4f 5b aa 3d 35 17 af bd fa a0 b2 3d
       0.23113656 0.08318197 -0.08549348 0.0872211
000050 91 57 b3 bd 64 36 68 3f e6 69 21 bc d2 a8 cf 3e
       -0.08756936 0.90707994 -0.009851908 0.40558487
000060 83 f1 5f 3e 2a 04 0e 3f 73 8f cc bd 5c fa 6e be
       0.21869473 0.55475104 -0.09988298 -0.23337692
000070 49 ba e5 3c 9b f5 05 3e 40 81 4d 3e 2d 20 dd 3b
       0.02804293 0.13081972 0.20068836 0.0067482204
000080 5c 10 08 3f ea e3 78 bc bd 41 2e 3e 0f ee 56 3f
       0.5314996 -0.015191058 0.17017265 0.83957
000090 98 d3 a8 3e 7d 9a 58 bc aa 46 c6 3e eb b6 0b be
       0.32973933 -0.013220427 0.38725787 -0.13643996
0000a0 7a 46 8d 3e 45 14 01 be 7e 94 ef bd df 7b fe 3e
       0.27592832 -0.12605388 -0.116982445 0.4970388
0000b0 49 4f 86 3f dc 0b bc 3e 82 53 07 3f 92 12 1a 3f
       1.0492946 0.36727798 0.528618 0.60184586
0000c0 03 6b b9 bd 49 94 e5 bd 07 f9 19 3f 63 5e 02 3f
       -0.09053614 -0.11209924 0.6014561 0.5092527
0000d0 45 94 d7 3e 32 4c 9f 3f ff a2 49 3f 0b 37 36 be
       0.42105308 1.2445128 0.7876434 -0.17794435
0000e0 72 c7 67 3e b9 07 8b 3e fd 7a 45 3f 3b ca 14 3b
       0.22634676 0.2715433 0.7714079 0.0022703547
0000f0 d9 8f ff bd b4 df 90 3e 09 3c 4e bc ae 05 73 3d
       -0.12478609 0.28295672 -0.012587556 0.05933159
