rescourse/代码/第三节，回归实战代码/covid/model_save/model.pth (torch, 4255 bytes, 3 tensors)

weight f4 [64, 6]
0	0xbe974d3a	-0.29551107
1	0x3eb28a1a	0.34870988
2	0xbe13fa1c	-0.14450878
3	0x3deb3758	0.11485165
4	0xbe929a2f	-0.28633258
5	0xbe7ebd1f	-0.24876831
6	0x3dfb79f8	0.12279123
7	0x3d09b2ce	0.033617787
8	0xbe571046	-0.21002302
9	0x3d7af7f9	0.06127164
10	0x3b197336	0.0023414618
11	0xbcea5f17	-0.028609795
12	0xbd2533a7	-0.040332463
13	0x3f35ca38	0.71011686
14	0xbe0a165f	-0.13485096
15	0x3d8b0e12	0.06789793
16	0xbdc7caf3	-0.09755506
17	0x3e24fef7	0.16112886
18	0x3dbaf536	0.091288015
19	0x3ec2fe5f	0.38084695
20	0x3eda614c	0.42652357
21	0x3e3dfdbd	0.18553825
22	0xbc844a4c	-0.016148709
23	0xbe41f6a9	-0.1894175
24	0xbbb8bd1d	-0.0056377784
25	0x3e236718	0.15957296
26	0xbe9d0115	-0.30664888
27	0x3e6c5e63	0.2308288
28	0x3dd0a4b2	0.10187663
29	0xbd876137	-0.06610339
30	0x3e173a68	0.14768374
31	0x3e60dbf9	0.21958913
32	0x3c202a21	0.009775669
33	0x3cb4c8e9	0.022068458
34	0xbe53ff22	-0.20702794
35	0xbe933d0f	-0.28757522
36	0xbe0e1d61	-0.13878395
37	0x3d9dc831	0.07704199
38	0xbe789357	-0.24274956
39	0x3ecfff9f	0.4062471
40	0xbd11be7c	-0.03558205
41	0xbea288b1	-0.31744912
42	0xbe84d03e	-0.25940126
43	0x3e13b622	0.14424947
44	0x3c8e29f7	0.017353995
45	0x3e151112	0.14557293
46	0x3ce5d3e2	0.028055135
47	0xbe0a519c	-0.13507694
48	0x3d4016b2	0.046896644
49	0x3ef50bb1	0.47860482
50	0xbd607f84	-0.05480911
51	0xbeb94f5a	-0.36193353
52	0x3dd3483c	0.10316512
53	0x3e851ac7	0.25996992
54	0x3e64507e	0.2229633
55	0x3f0ed322	0.55790913
56	0xbde97864	-0.11399916
57	0xbdfab54e	-0.122416124
58	0x3d95cd0c	0.073145
59	0x3d6f6722	0.058447964
60	0xbe14bc83	-0.14525037
61	0xbe835420	-0.2565012
62	0x3e47b41c	0.195023
63	0xbea9260a	-0.33036834
64	0xbe383592	-0.17989185
65	0x3e7c0a89	0.24613394
66	0x3e106198	0.14099729
67	0x3f050e5d	0.5197504
68	0xbe609fe8	-0.21936
69	0x3d7d742c	0.06187837
70	0x3e805c0e	0.25070232
71	0xbd746452	-0.059665985
72	0xbeaa2c56	-0.3323695
73	0xbdb344e3	-0.087533735
74	0x3e19a707	0.15005122
75	0xbd88e48e	-0.06684218
76	0xbeadce61	-0.33946517
77	0xbd75528a	-0.05989317
78	0xbc28dd83	-0.010306719
79	0x3ed29bd7	0.4113452
80	0x3dfd8a14	0.12379852
81	0x3d17ac49	0.03702954
82	0xbdf8b383	-0.12143614
83	0xbd914fea	-0.070953205
84	0x3c35e5aa	0.011102119
85	0x3f1fada4	0.6237433
86	0xbe996ee0	-0.29967403
87	0xbd526c1a	-0.051372625
88	0x3ea6cf77	0.32580158
89	0xbd2d9333	-0.04237671
90	0x3d629ccb	0.05532531
91	0x3ececf73	0.40392646
92	0xbe8b0f49	-0.271601
93	0xbe99078f	-0.2988858
94	0xbea7d259	-0.3277767
95	0xbe7239b7	-0.23654829
96	0xbeb913cb	-0.36147913
97	0xbea7a5de	-0.32743734
98	0xbdf9e1ed	-0.12201295
99	0x3e8b45b0	0.27201605
100	0xbe6e5867	-0.2327591
101	0x3d946a6e	0.07246862
102	0xbec06c72	-0.37582737
103	0xbec76501	-0.38944247
104	0x3e35fba0	0.17771769
105	0xbca98b1c	-0.020696215
106	0x3ea08a19	0.3135536
107	0x3e8884f5	0.26663938
108	0xbe9248d9	-0.28571203
109	0xbd358c75	-0.044323403
110	0x3dc1c579	0.09461493
111	0xbeab6977	-0.334789
112	0x3d999a6e	0.07500158
113	0xbe62150a	-0.22078338
114	0xbed1db27	-0.40987512
115	0x3ea0be4d	0.31395188
116	0x3e91e5e0	0.28495693
117	0x3e27e6e1	0.16396667
118	0x3da64e43	0.08120396
119	0xbe532318	-0.20618856
120	0xbee13f8b	-0.43993792
121	0xbe0ebdfa	-0.13939658
122	0x3e29b919	0.16574515
123	0x3e1f4f5a	0.15557614
124	0x3e1d022b	0.15332858
125	0xbd5047e4	-0.05084981
126	0xbe538006	-0.20654306
127	0x3ec7ade6	0.3899986
128	0xbe66cc1f	-0.22538804
129	0x3e1639e2	0.14670518
130	0xbecd6651	-0.40117124
131	0x3e4e0a3d	0.20121093
132	0xbe909439	-0.28238085
133	0xbeca22ef	-0.39479777
134	0x3e843836	0.25824136
135	0x3e98bb33	0.29830322
136	0x3e213bc1	0.1574545
137	0xbe84a2f2	-0.25905567
138	0x3e4e10e5	0.20123632
139	0x3dddcdff	0.10830306
140	0xbdbcf1ed	-0.09225831
141	0xbe23455f	-0.15944432
142	0xbe1c5126	-0.1526533
143	0xbe98a51e	-0.29813474
144	0xbe92cde1	-0.28672698
145	0x3da9b2c9	0.08286054
146	0xbd82dcc4	-0.06389764
147	0x3e1cb350	0.15302777
148	0xbe7cde26	-0.24694118
149	0x3e7800b4	0.24219018
150	0x3e578da9	0.21050133
151	0xbec44f28	-0.3834164
152	0x3db191cf	0.08670389
153	0xbe5ec082	-0.21753123
154	0x3e4015a6	0.18758258
155	0xbdc05fb6	-0.093932554
156	0xbeaca1ab	-0.33717093
157	0xbe113cd2	-0.14183357
158	0x3e75c3e6	0.2400051
159	0x3ba3fe0d	0.0050046504
160	0xbd8d74af	-0.06907021
161	0x3e130bda	0.1435999
162	0x3dfdfb40	0.12401438
163	0xbeb4251d	-0.35184565
164	0x3d8eeb3d	0.06978462
165	0xbe7636e0	-0.2404437
166	0x3ebfa1fb	0.3742827
167	0xbdf1e950	-0.11812079
168	0xbe400fd2	-0.18756035
169	0xbe888ad5	-0.2666842
170	0x3ed6922f	0.41908404
171	0x3bb175ba	0.0054156454
172	0x3e809b1a	0.25118333
173	0xbe7bb01f	-0.24578904
174	0x3dfa13bc	0.12210795
175	0x3ee40483	0.44534692
176	0x3e3f9bf0	0.18711829
177	0xbe95e447	-0.29275724
178	0xbe160dea	-0.14653745
179	0x3e31347f	0.17305182
180	0xbdb316b5	-0.087445654
181	0x3ec5e3ac	0.38650262
182	0xbe38f3a7	-0.18061696
183	0xbca7c2a2	-0.02047855
184	0x3e181aaf	0.14853929
185	0x3d5e79bf	0.054315325
186	0xbe83887b	-0.25690064
187	0x3e224814	0.15847808
188	0x3df71c9e	0.12066005
189	0xbe8ea3ff	-0.27859494
190	0x3ed4edf3	0.4158779
191	0x3d27c116	0.040955625
192	0xbd9b9983	-0.075976394
193	0x3e0be22f	0.13660501
194	0x3d7ea155	0.062165577
195	0xbd3fbb1e	-0.04680931
196	0x3cb84ad2	0.022496615
197	0x3d824bbb	0.06362101
198	0xbea53a97	-0.32271263
199	0x3f1eb180	0.61989594
200	0xbc14e9c3	-0.009088936
201	0x3e3ceade	0.1844897
202	0xbda5ecec	-0.0810183
203	0xbde6faf4	-0.11278334
204	0xbeab6d2a	-0.33481723
205	0x3e74b1a2	0.23895887
206	0x3dd79028	0.105255425
207	0xbeb28d7f	-0.34873578
208	0x3e8bff6e	0.27343315
209	0x3df99e7f	0.12188434
210	0x3e8b64bd	0.27225295
211	0x3de45b34	0.11150208
212	0x3e0d994a	0.13828006
213	0xbe0ecfbf	-0.13946436
214	0xbdfc08ca	-0.12306364
215	0xbebfda31	-0.37471154
216	0xbdb0e4bc	-0.086373776
217	0x3f1c017f	0.6093978
218	0x3c9711de	0.018441137
219	0x3d513db0	0.05108422
220	0xbd3dfd26	-0.046384
221	0xbe9d7a22	-0.30757242
222	0xbe57f0a3	-0.2108789
223	0xbe8f7e23	-0.28025922
224	0x3a8e7165	0.0010867534
225	0x3e89961a	0.2687233
226	0x3ebdeb25	0.37093464
227	0xbde13744	-0.10996869
228	0x3ef781b8	0.48341155
229	0x3e844c1a	0.2583931
230	0x3e5d56af	0.21615098
231	0xbe76f18e	-0.24115583
232	0x3e5e3cda	0.217029
233	0xbe9ef719	-0.31047896
234	0xbd24d0d2	-0.04023821
235	0xbe42fbf9	-0.19041432
236	0xbe423818	-0.1896671
237	0x3e1120fa	0.14172736
238	0x3e14a49a	0.14515916
239	0xbe8dfb34	-0.27730715
240	0x3e780e60	0.24224234
241	0xb9ec78a2	-0.00045103306
242	0x3b24d2a3	0.0025149963
243	0xbe9366ef	-0.2878947
244	0xbea2666d	-0.3171877
245	0x3ea0e008	0.31420922
246	0x3e79ca98	0.2439369
247	0x3ea636a0	0.3246355
248	0xbdbb092e	-0.0913261
249	0xbe551cd6	-0.20811781
250	0xbdf142e2	-0.11780335
251	0x3cdaa86a	0.026691634
252	0x3e5ab0fd	0.21356578
253	0x39923a53	0.00027890745
254	0xbf08192d	-0.53163415
255	0x3d9940c1	0.07483054

bias f4 [64]
0	0xbe3f40fb	-0.18677132
1	0xbe748507	-0.23878871
2	0x3f74c8ca	0.9561888
3	0x3ed1f5de	0.41007894
4	0xbec51935	-0.38495794
5	0xbe92e33c	-0.2868899
6	0xbddc5d15	-0.107599415
7	0xbebf19ca	-0.37324363
8	0x3f5db881	0.86609656
9	0x3fb94115	1.4472986
10	0xbe39bbb5	-0.18138011
11	0xbdba864a	-0.09107645
12	0xbea25be8	-0.31710744
13	0x3f2a6746	0.6656383
14	0x3f9ec757	1.2404584
15	0xbe6f6c0e	-0.23381063
16	0xbe856f30	-0.26061392
17	0xbd6123cf	-0.05496579
18	0xbe83276d	-0.25616017
19	0x3ef375ac	0.47550714
20	0xbe2e00b6	-0.16992459
21	0xbeb0401a	-0.34423906
22	0xbea49fba	-0.32153112
23	0xbe4ae181	-0.19812585
24	0xbce56063	-0.028000062
25	0xbdc6f42b	-0.0971454
26	0xbde6defc	-0.11273
27	0xbd0d0975	-0.034432847
28	0xbd289d1b	-0.041165452
29	0x3f66ff84	0.90233636
30	0x3f0b091c	0.54310775
31	0x3ed30607	0.41215536
32	0x3ea3ff19	0.32030562
33	0x3eff557d	0.4986991
34	0x3e2e1f3b	0.17004101
35	0xbebac320	-0.36476994
36	0x3f1572ff	0.58378595
37	0xbead8089	-0.33887127
38	0x3f891af0	1.0711346
39	0xbd71daee	-0.05904668
40	0xbcf7a18d	-0.0302284
41	0x3e28a42c	0.16468877
42	0xbd98e130	-0.07464826
43	0xbeaa63de	-0.33279318
44	0xbe74467b	-0.23855011
45	0xbe72ad28	-0.23698866
46	0xbea19423	-0.31558332
47	0xbe967894	-0.2938887
48	0xbe3191f3	-0.17340831
49	0x3e23b98a	0.15988746
50	0x3d86713b	0.06564566
51	0xbd8ac2d4	-0.06775442
52	0x3e213324	0.15742165
53	0x3db80d9b	0.0898697
54	0x3f2c8616	0.673921
55	0x3f7d4180	0.9892807
56	0x3f5f687b	0.872688
57	0x3eaa5ecc	0.3327545
58	0x3ebe95fa	0.37223798
59	0xbedc29ae	-0.4300055
60	0x3ee5aca8	0.4485829
61	0x3f5971e7	0.84939426
62	0xbea4d939	-0.32196978
63	0x3f4def80	0.80443573

weight f4 [1, 64]
0	0xbdd32152	-0.1030909
1	0x3eb9e037	0.36303875
2	0x3f6c3107	0.9226231
3	0x3edf8d0e	0.43662304
4	0xbd128b3e	-0.035777323
5	0x3b5211e9	0.0032054132
6	0xbd88ecb1	-0.0668577
7	0x3ea7dcec	0.32785738
8	0x3f6ccbd8	0.9249854
9	0x3fb7495e	1.4319265
10	0xbe258fbe	-0.16168115
11	0x3e8cc6a6	0.27495307
12	0xbe5ec722	-0.2175565
13	0x3f016d44	0.5055735
14	0x3fa869cb	1.3157285
15	0xbe400e3a	-0.18755427
16	0xbe70e00e	-0.2352297
17	0xbce94784	-0.028476484
18	0xbe4bd750	-0.19906354
19	0x3f22dd07	0.6361851
20	0x3e9f970a	0.3116992
21	0x3cd7ff89	0.026366966
22	0xbd9ddbea	-0.07707961
23	0xbdfefbf3	-0.12450399
24	0x3e592f35	0.21209414
25	0xbda4584e	-0.08024655
26	0xbdaf1277	-0.08548444
27	0xbd8c7c27	-0.06859618
28	0xbd695d87	-0.05697396
29	0x3f8f376a	1.1188786
30	0x3f0997f0	0.53747463
31	0x3eba156d	0.36344472
32	0x3f59c14c	0.8506057
33	0x3f846244	1.0342488
34	0x3e48fb2a	0.19627061
35	0x3ea9bb2b	0.3315061
36	0x3f1a5882	0.602913
37	0xbd0157dd	-0.031577934
38	0x3f75d2d6	0.96024835
39	0xbdd45634	-0.103680044
40	0xbd74fb44	-0.059809938
41	0x3e064f2e	0.13116142
42	0x3f006565	0.50154716
43	0x3d6bf5e7	0.057607558
44	0x3e487aa1	0.19578029
45	0xbe46521c	-0.1936726
46	0xbe37c834	-0.17947465
47	0xbde41c8f	-0.111382596
48	0xbd4dd2fd	-0.050250042
49	0x3d36e6d8	0.044653744
50	0x3da91074	0.08255091
51	0xbdbe1082	-0.09280492
52	0x3e66e278	0.22547328
53	0x3ce4a53c	0.027910821
54	0x3edee036	0.43530434
55	0x3f7ef033	0.99585265
56	0x3f919767	1.1374329
57	0x3e2df050	0.16986203
58	0x3eb09236	0.3448655
59	0x3d8919c0	0.066943645
60	0x3e99b481	0.30020526
61	0x3f627bea	0.8847033
62	0xbc905694	-0.017619409
63	0x3f374664	0.7159178
