rescourse/环境/环境安装/covid/model_save/model.pth (torch, 4255 bytes, 3 tensors)

weight f4 [64, 6]
0	0xbe2dd5c5	-0.16976078
1	0x3e0035a1	0.12520458
2	0x3e3ec50a	0.18629852
3	0xbe8c0e24	-0.27354538
4	0x3e6fd23f	0.23420046
5	0xbe10cf12	-0.14141491
6	0x3ea3723b	0.31923088
7	0x3eac6ea9	0.33678177
8	0xbd16b893	-0.036797117
9	0xbe9e47de	-0.30914205
10	0xbdb9afba	-0.0906672
11	0xbd4440cf	-0.04791337
12	0xbe4e9e8b	-0.20177667
13	0xbd965e48	-0.073422015
14	0x3e60a8e1	0.21939422
15	0xbe68feb0	-0.22753406
16	0xbe2e3dee	-0.17015812
17	0xbeb4e17e	-0.35328287
18	0x3ec0157d	0.37516394
19	0x3e1f551b	0.15559809
20	0x39a9aa41	0.0003236104
21	0x3e2632a0	0.1623025
22	0x3c5878cf	0.013212397
23	0x3d4b1e57	0.04958948
24	0x3dd4cf9a	0.10391159
25	0x3d9a9782	0.07548429
26	0xbe96bc7b	-0.29440674
27	0x3d0dd978	0.034631222
28	0xbe279f26	-0.16369304
29	0x3e0774c2	0.13228133
30	0x3caaab59	0.020833658
31	0x3e1d26b2	0.15346792
32	0xbe8e5ee0	-0.2780676
33	0x3e57b09e	0.21063468
34	0x3e6d3f46	0.23168668
35	0x3d1d7329	0.038439903
36	0xbd945c3e	-0.07244156
37	0x3e8d7be3	0.2763358
38	0x3e959336	0.29213876
39	0xbca1399d	-0.019680792
40	0xbdda6778	-0.10664266
41	0x3e8bfbf1	0.27340654
42	0xbe567ead	-0.2094676
43	0x3ef069f2	0.4695583
44	0xbe7cad41	-0.24675466
45	0x3e1ad1b0	0.15119052
46	0x3d414c2c	0.047191784
47	0x3dcd2a97	0.10017889
48	0xbe3b879f	-0.18313454
49	0xbceb7e96	-0.028746884
50	0x3d16cf26	0.036818646
51	0x3ed0cb52	0.4078012
52	0x3e024d3e	0.12724778
53	0xbdda797a	-0.10667701
54	0xbce52b78	-0.02797483
55	0x3d1519ad	0.03640144
56	0xbd033266	-0.032030486
57	0x3e02d687	0.12777148
58	0x3e04a00a	0.12951675
59	0xbe168830	-0.14700389
60	0xbea3914b	-0.31946787
61	0xbedbc501	-0.4292374
62	0xbe6634cf	-0.22481082
63	0xbce01967	-0.027355863
64	0x3e7fd9d8	0.24985445
65	0x3e05fadb	0.13083975
66	0x3eaf0e4a	0.3419059
67	0xbeb1314a	-0.34607917
68	0xbe143045	-0.14471538
69	0xbea79837	-0.32733318
70	0x3e33be8f	0.17553161
71	0x3e9e2aa0	0.30891895
72	0xbd6d2175	-0.057893235
73	0xbe3cad00	-0.1842537
74	0xbdbded8f	-0.09273826
75	0x3e01e38d	0.1268446
76	0xbde62963	-0.11238363
77	0xbe2a3bb0	-0.16624331
78	0x3dfea449	0.12433679
79	0x3ebd96fa	0.37029248
80	0x3da76c15	0.08174912
81	0xbbc3a866	-0.0059710024
82	0xbdc8a186	-0.09796433
83	0xbe12c996	-0.14334711
84	0x3edb0981	0.42780688
85	0x3ddc3dcd	0.10753975
86	0xbd467196	-0.048448168
87	0xbe1af64e	-0.1513302
88	0x3e16ebfa	0.14738455
89	0x3d088cb7	0.03333732
90	0xbdf01eae	-0.11724602
91	0xbe409eef	-0.18810628
92	0xbe811127	-0.252084
93	0x3e84cd2f	0.25937793
94	0x3ee17353	0.44033298
95	0x3ce820ad	0.028335894
96	0xbd74c8d6	-0.059761845
97	0xbe79021d	-0.24317212
98	0x3e484973	0.19559269
99	0xbde98dc0	-0.1140399
100	0x3bcab3c4	0.0061859805
101	0x3e6152e5	0.22004278
102	0xbe2baa88	-0.16764271
103	0x3ebfb639	0.37443712
104	0xbcff137d	-0.031137222
105	0xbdf2e183	-0.11859419
106	0x3e031cde	0.1280398
107	0x3b9167cb	0.004437422
108	0xbd756a9c	-0.059916124
109	0x3f15ab50	0.5846453
110	0x3d074269	0.033022318
111	0xbedd7802	-0.4325562
112	0x3e28a7a1	0.16470195
113	0x3df8ae7c	0.12142655
114	0x3ec746ef	0.38921306
115	0xbd97fbbf	-0.07421064
116	0xbe998741	-0.29986003
117	0x3e721211	0.23639704
118	0x3c9d2def	0.019186942
119	0xbe765e35	-0.24059375
120	0x3e282d71	0.16423585
121	0x3e2c681c	0.1683659
122	0x3dba8e8d	0.09109221
123	0x3db352da	0.08756037
124	0x3d7c57bf	0.06160712
125	0xbe5f99b3	-0.21835975
126	0xbe1b1766	-0.15145645
127	0x3ec11128	0.37708402
128	0xbdeab273	-0.11459818
129	0x3c3ef6ee	0.011655552
130	0x3e964bae	0.29354614
131	0xbe86b8fe	-0.26313013
132	0x3c73a9cc	0.014872026
133	0xbe2deec5	-0.16985615
134	0x3ea3bb67	0.31978914
135	0xbe6f2f8f	-0.23357986
136	0xbcc4bdab	-0.024016222
137	0xbe29cf24	-0.16582924
138	0x3ddb1d4a	0.10698946
139	0x3f077817	0.5291762
140	0xbde082f1	-0.10962475
141	0x3de0b392	0.1097175
142	0x3e8af4ab	0.27139792
143	0xbe5e35c2	-0.21700194
144	0x3e7de7ec	0.24795502
145	0xbcf81c49	-0.030286925
146	0x3bd1b68d	0.0063999356
147	0xbe0c9e2a	-0.1373221
148	0x3c92a8d7	0.017902775
149	0x3dc8dd89	0.098078795
150	0x3e0c058e	0.13673994
151	0x3eb567ce	0.3543076
152	0xbe3b4c16	-0.18290743
153	0xbdd9b180	-0.106295586
154	0x3e16e42b	0.14735477
155	0x3d22fa87	0.039789703
156	0xbeb2e5a1	-0.34940818
157	0x3ed304da	0.4121464
158	0x3e482d14	0.19548446
159	0xbe25b9a3	-0.16184096
160	0x3e2af169	0.16693653
161	0xbd98552d	-0.07438121
162	0x3e8da903	0.27668008
163	0xbdf32d78	-0.11873907
164	0x3ec9842b	0.3935865
165	0xbe23932b	-0.15974109
166	0xbeb7fb59	-0.3593395
167	0xbe33257a	-0.17494765
168	0xbe189784	-0.14901549
169	0xbebf753b	-0.37394127
170	0x3c9f4abb	0.019444814
171	0x3eb917e8	0.36151052
172	0xbd68668c	-0.05673842
173	0x3e2e0054	0.16992313
174	0x3e45f7fb	0.19332878
175	0xbd39d939	-0.045373175
176	0xbd908447	-0.0705648
177	0xbe1575b3	-0.1459568
178	0x3efb79c4	0.49116337
179	0xbb8dd290	-0.0043280795
180	0xbe966b85	-0.29378906
181	0xbea46fac	-0.3211645
182	0xbb9be0df	-0.0047570313
183	0xbd2ff376	-0.04295679
184	0x3e84a447	0.25906584
185	0x3e036c8c	0.12834376
186	0x3c736eb7	0.014857939
187	0x3ecb9c25	0.39767566
188	0xbe3e5858	-0.18588388
189	0xbe7939d9	-0.24338473
190	0xbda345a2	-0.07972266
191	0x3e51f0fb	0.20502083
192	0x3e8fac23	0.28061017
193	0xbebc16d6	-0.36736172
194	0xbe8075cb	-0.2508987
195	0xbe3ad4d3	-0.18245248
196	0xbdedfd17	-0.11620539
197	0xbe0dc0f7	-0.13843141
198	0x3ea2003e	0.3164081
199	0xbe9b032e	-0.30275863
200	0xbe5a1a83	-0.21299176
201	0x3de1377f	0.10996913
202	0xbd58a95a	-0.05289588
203	0x3da3e07d	0.08001802
204	0x3d55ee4f	0.052229222
205	0xbd93fc66	-0.072258756
206	0x3d3b5022	0.045730717
207	0xbd0303b8	-0.03198597
208	0x3e72ca77	0.23710047
209	0xbcf54a05	-0.029942522
210	0x3e7b06be	0.2451429
211	0xbd624673	-0.055242967
212	0xbc49801a	-0.012298608
213	0xbe829a1e	-0.25508207
214	0x3f0957b0	0.53649426
215	0x3de8fb5f	0.1137607
216	0xbcf6e0af	-0.030136434
217	0xbd15e46f	-0.036594804
218	0xbea34ad6	-0.31893033
219	0x3e89b789	0.2689784
220	0xbe29e760	-0.16592169
221	0x3e38100d	0.17974873
222	0xbe420604	-0.18947607
223	0x3f072c21	0.5280171
224	0xbec8416e	-0.3911242
225	0x3e1cb6ca	0.15304103
226	0x3e6f91a7	0.23395406
227	0x3d7db0bb	0.06193612
228	0x3e6a3907	0.22873317
229	0xbce9efd5	-0.028556744
230	0x3e8f345b	0.27969632
231	0x3d964926	0.07338171
232	0x3e1d58cb	0.15365903
233	0xbeb776fe	-0.3583297
234	0xbd8718ff	-0.065965645
235	0x3c94aa52	0.018147621
236	0x3dbd88f4	0.09254637
237	0xbd097f1e	-0.033568494
238	0x3e2a5616	0.16634402
239	0xbe809f33	-0.2512146
240	0xbdf3c4f9	-0.11902804
241	0xbe72e17b	-0.23718826
242	0xbec923f8	-0.39285254
243	0x3cf91b41	0.030408503
244	0x3ec26245	0.379656
245	0xbc9341c0	-0.017975688
246	0x3ebbdf4c	0.366938
247	0x3d94d9c6	0.072680995
248	0xbe0ac5ac	-0.13551968
249	0x3cc63537	0.024195297
250	0xbd9170a8	-0.071015656
251	0x3e23d78f	0.16000198
252	0x3dcd6466	0.10028915
253	0xbce3c1c5	-0.027802357
254	0xbda18627	-0.07886916
255	0x3e23f8c0	0.1601286

bias f4 [64]
0	0xbc418d53	-0.0118134795
1	0x3eb29f39	0.34887102
2	0xbebb3d19	-0.3657005
3	0x3e1845af	0.14870332
4	0xbd897b5b	-0.06712981
5	0x3f3751a8	0.7160897
6	0xbc39f2a4	-0.011349354
7	0x3f8f8a00	1.1213989
8	0x3f0e0ddf	0.55489916
9	0x3e26d270	0.16291213
10	0xbe9dd1e0	-0.30824184
11	0xbecf0ae8	-0.40438008
12	0x3d9a1d72	0.075251475
13	0x3f2c05b7	0.6719622
14	0x3f6aa0f0	0.9165182
15	0x3ebad94c	0.3649391
16	0xbeacaf38	-0.3372743
17	0xbe98cce0	-0.29843807
18	0x3f513521	0.81721693
19	0xbeae5730	-0.34050894
20	0x3f1e08f7	0.6173243
21	0x3ea23a2c	0.31685007
22	0x3ddb6036	0.1071171
23	0x3f21a580	0.6314316
24	0x3eb7fdb1	0.3593574
25	0x3f3a1945	0.7269481
26	0x3eba44bb	0.36380562
27	0x3b74115c	0.0037241792
28	0xbe53eaab	-0.20694987
29	0x3e9e5561	0.30924514
30	0xbc5cdb76	-0.013480058
31	0x3e268cac	0.162646
32	0xbe93e641	-0.28886607
33	0x3c985747	0.018596305
34	0x3f3cf403	0.7380983
35	0x3f3f9cee	0.7484883
36	0xbd2a3ae0	-0.041560054
37	0x3f386f0b	0.7204444
38	0x3f223db9	0.6337543
39	0xbe48471f	-0.1955838
40	0xbde35c16	-0.111015484
41	0x3f3f7ffb	0.7480466
42	0xbd859efa	-0.06524463
43	0x3fa9891e	1.324497
44	0xbd03e137	-0.032197203
45	0xbdc3073f	-0.095228665
46	0x3f1cf462	0.613104
47	0x3d157597	0.036489096
48	0xbe8c7ef8	-0.2744062
49	0x3f112f30	0.5671263
50	0xbe8e5888	-0.2780192
51	0x3f7a0884	0.97669244
52	0x3f2a9d5e	0.66646373
53	0xbec6d892	-0.38837105
54	0x3e5a3344	0.21308619
55	0x3f150cba	0.58222544
56	0xbd1b3ae0	-0.037897944
57	0xbe74fcc4	-0.23924547
58	0x3e80a819	0.25128248
59	0xbe238fbe	-0.15972802
60	0xbef8d960	-0.48603344
61	0x3f5f65f1	0.87264925
62	0xbe283d64	-0.16429669
63	0xbe99fc18	-0.30075145

weight f4 [1, 64]
0	0x3c7956d8	0.015218459
1	0x3e70a4b1	0.23500325
2	0xbe7741d6	-0.24146208
3	0x3ee2fe9e	0.44334882
4	0x3da9a0b7	0.08282607
5	0x3f2f6780	0.68517303
6	0x3ea78332	0.32717282
7	0x3f95745b	1.1676134
8	0x3ed8ad4b	0.42319712
9	0x3e28031c	0.16407436
10	0xbe8ac413	-0.27102718
11	0x3dfb3213	0.1226541
12	0xbd8c2cfd	-0.06844518
13	0x3efd56eb	0.49480376
14	0x3f4c5b64	0.7982695
15	0x3e7f4fec	0.24932832
16	0x3d5a28a7	0.053261425
17	0x3cf41b06	0.029798042
18	0x3f8a4b6a	1.0804265
19	0x3dab25d7	0.08356827
20	0x3f384492	0.7197963
21	0x3f00f9c6	0.50381124
22	0xbc8b6e0f	-0.017020253
23	0x3f10e44a	0.5659834
24	0x3f2a4677	0.6651377
25	0x3f3e78da	0.74403155
26	0x3f19ec71	0.60126406
27	0xbd361eee	-0.04446309
28	0xbde0f886	-0.10984902
29	0x3e6e6309	0.23279966
30	0xbe1a50b2	-0.15069845
31	0x3f34a42e	0.7056302
32	0xbe57cf1c	-0.210751
33	0xbd04b25a	-0.03239665
34	0x3f2653b3	0.64971465
35	0x3eef982b	0.46795782
36	0xbc6d6f4f	-0.01449187
37	0x3f34960a	0.7054144
38	0x3f14bb79	0.5809856
39	0x3e18bd92	0.14916065
40	0xbe3a8c35	-0.18217547
41	0x3efb83f8	0.49124122
42	0xbbda14b2	-0.006655299
43	0x3fb96b65	1.4485899
44	0xbd90c7f8	-0.07069391
45	0xbe08ede7	-0.13372003
46	0x3f888dca	1.066827
47	0x3e1d49f5	0.15360244
48	0xbe411adb	-0.18857901
49	0x3f03b5e8	0.5144944
50	0x3dcfb716	0.10142343
51	0x3f5a1eb4	0.852031
52	0x3f3a4a3b	0.72769517
53	0xbd175cc2	-0.036953695
54	0x3e6bef0f	0.23040412
55	0x3f1ef963	0.62099284
56	0xbdee74c9	-0.11643369
57	0x3eca7d96	0.3954894
58	0x3e2bd98e	0.1678221
59	0xbe0ebc49	-0.13939013
60	0x3ee25cbe	0.44211382
61	0x3f4e837f	0.806694
62	0x3ce98786	0.028507005
63	0xbea13562	-0.3148604
