rescourse/代码/第三节，回归实战代码/fangjia/model_save/model.pth (torch, 7327 bytes, 3 tensors)

weight f4 [64, 18]
0	0x3c6c26a3	0.014413509
1	0xbc056f28	-0.0081441775
2	0xbcf8be4b	-0.030364176
3	0xbcf9921d	-0.03046518
4	0xbc60a163	-0.013710353
5	0x3da2a6fd	0.07942007
6	0x3ae7a63e	0.0017673445
7	0xbcccc8fc	-0.02499818
8	0x3c7dffc2	0.015502872
9	0x3c624dfe	0.01381254
10	0xbd00a4de	-0.03140723
11	0xbc1c86b6	-0.009553602
12	0xbd109eb5	-0.035307605
13	0xbd9c1c21	-0.07622553
14	0xbc388bd1	-0.011263804
15	0x3b36f8b9	0.0027919246
16	0x3cded1bc	0.027199619
17	0xbcb87b60	-0.022519767
18	0x3d0d47c3	0.034492265
19	0x3e05f8dd	0.13083215
20	0xbd342d40	-0.043988466
21	0xbd5e3713	-0.05425174
22	0xb8a76177	-7.981335e-05
23	0xbc05cb47	-0.008166141
24	0xbb97f791	-0.0046376665
25	0xbdf3fda0	-0.119136095
26	0xbc63f3f9	-0.013913148
27	0xbde1bdd1	-0.11022533
28	0xbd9cc2b6	-0.07654326
29	0x3d243472	0.04008908
30	0xbd283b01	-0.041071896
31	0x3c98289b	0.01857405
32	0x3cf85c97	0.030317588
33	0xbc86bebf	-0.016448377
34	0xbdc980af	-0.098389976
35	0xbca2b20e	-0.019860294
36	0xbc053667	-0.008130646
37	0x3c505931	0.012716577
38	0xbc924628	-0.017855719
39	0xbc94c63b	-0.01816093
40	0xba9b3a3b	-0.0011842916
41	0x3c0f89f0	0.008760914
42	0xbce0ef61	-0.027457895
43	0xbc725e6a	-0.014793018
44	0xbc4a3028	-0.012340583
45	0x3a171d0b	0.00057645206
46	0xbb9023cd	-0.004398799
47	0xbc89db1a	-0.016828109
48	0xbc7a2115	-0.015266676
49	0xbcc57506	-0.024103653
50	0x3ba43175	0.0050107786
51	0xbbc8f309	-0.0061324877
52	0x3c994761	0.018710794
53	0xbaab89a8	-0.0013087289
54	0x3c0b3773	0.008497107
55	0xbd46e024	-0.0485536
56	0xbc8184d1	-0.015810402
57	0xbc804993	-0.015660083
58	0xbbe4b192	-0.006979176
59	0xbc955c49	-0.018232482
60	0x3d272f44	0.04081656
61	0xbd17fc83	-0.03710605
62	0x3bff9b87	0.0078005227
63	0xbd211219	-0.0393239
64	0x3b1fd4dd	0.002438835
65	0xbd0a8e14	-0.033826903
66	0xbc54c639	-0.012986713
67	0xbce2fbc1	-0.027707936
68	0x3ccc601e	0.024948176
69	0xbbc3c90a	-0.0059748935
70	0xbd6d7cdf	-0.057980414
71	0x3c466a9f	0.012110381
72	0xbc92aed4	-0.01790563
73	0x3bf38327	0.007431406
74	0xbd1d7155	-0.03843816
75	0xbd239960	-0.03994119
76	0xbcb50152	-0.022095356
77	0xbd946e80	-0.07247639
78	0xbd39f307	-0.045397785
79	0xba933a1c	-0.0011232528
80	0x3d7e2d0b	0.062054675
81	0xbc046da5	-0.008082782
82	0xbd85bf5d	-0.0653064
83	0x3d0c5643	0.034261953
84	0xbd5ef63e	-0.054434054
85	0xbcc294ef	-0.023752658
86	0x3b9135c8	0.00443146
87	0xbd0747b0	-0.03302735
88	0x3d67d261	0.056597117
89	0xbcc7c288	-0.024384752
90	0xbc6d6a71	-0.01449071
91	0xbd92bccd	-0.07164917
92	0xbd50a4f3	-0.050938558
93	0xbe4fdfd9	-0.20300235
94	0xbd6b350e	-0.057423644
95	0xbda0bba2	-0.07848288
96	0xbe83729a	-0.25673372
97	0xbdc77d50	-0.09740698
98	0x3d07bae1	0.033137206
99	0xbe8548c1	-0.2603207
100	0xbe334efc	-0.17510599
101	0xbdcd232e	-0.100164756
102	0x3dd3b195	0.103366055
103	0xbe0854e9	-0.1331364
104	0xbd871f89	-0.06597812
105	0x3da87ddc	0.08227131
106	0xbe3cc88f	-0.18435882
107	0x3d729cae	0.059231453
108	0x3a5cae63	0.00084183196
109	0x3b26410e	0.0025368365
110	0x3b217bce	0.0024640444
111	0xbb90061c	-0.0043952595
112	0x398973c2	0.00026216923
113	0x3b1d95d8	0.0024045613
114	0xbc97d220	-0.018532813
115	0xbb0409da	-0.0020147474
116	0xbb17320a	-0.0023070597
117	0x3a251fdd	0.00062989985
118	0xba779b39	-0.0009445432
119	0xba9f20ce	-0.0012140514
120	0x3b9e5bd6	0.004832725
121	0xb9fb05cc	-0.0004787877
122	0xbaaa3df5	-0.0012988435
123	0x3acf174f	0.0015799793
124	0xb97e0098	-0.00024223549
125	0x399a1863	0.00029391338
126	0xba336537	-0.00068433903
127	0xba0829e2	-0.00051942293
128	0xba99d1e0	-0.0011735521
129	0xba9a3a50	-0.0011766646
130	0xba2e3359	-0.00066452246
131	0xbb24dbed	-0.00251555
132	0xbb1dea1d	-0.0024095841
133	0x38797473	5.9474678e-05
134	0x3ab5310d	0.0013823822
135	0xba081dd0	-0.00051924307
136	0xbaddf52e	-0.0016934031
137	0x3a8e8c5d	0.0010875572
138	0xbac798b1	-0.0015228001
139	0xb9c72146	-0.00037981028
140	0x38817673	6.173262e-05
141	0xb9f2add3	-0.00046287346
142	0x3abcb4e7	0.0014397175
143	0xba3484e4	-0.00068862573
144	0x3bdc905b	0.0067310757
145	0xbaa8ccca	-0.0012878415
146	0xbc350c70	-0.011050329
147	0xbc66d2dd	-0.01408836
148	0xbca85889	-0.02055003
149	0xbd12d890	-0.03585106
150	0xbdfbcb1f	-0.12294602
151	0xbb22ec0e	-0.0024859938
152	0x3d80eb74	0.06294909
153	0x3cf29235	0.029610733
154	0xbd3e35d0	-0.04643804
155	0x3d8c54c6	0.06852107
156	0xbd5d8785	-0.05408432
157	0xbd272bab	-0.04081313
158	0x3be0a921	0.0068560992
159	0xbcd16bf2	-0.025564168
160	0x3d93d87e	0.07219027
161	0xbcaeba6d	-0.02132913
162	0xbb60c6dd	-0.003429822
163	0xbbb6564e	-0.0055644875
164	0xbb2b96be	-0.0026182379
165	0xbb91c972	-0.004449063
166	0xbb98ec0c	-0.004666811
167	0xbb9f9269	-0.0048697484
168	0x3cac5a22	0.021039072
169	0x3b7492ec	0.0037319018
170	0x3bc65141	0.0060521667
171	0xbb6e1cd5	-0.0036333103
172	0xba15d88b	-0.00057161663
173	0xbc0faa94	-0.008768696
174	0xbbd8070f	-0.0065926383
175	0xbc08908f	-0.008335247
176	0x3be42241	0.006962091
177	0xbbde581c	-0.006785406
178	0xbc140beb	-0.009036045
179	0xba84f120	-0.0010142662
180	0xbdeb069d	-0.11475871
181	0x3bb37b66	0.0054773567
182	0xbd4fc38d	-0.0507236
183	0xbd84edfa	-0.06490703
184	0x3da02834	0.07820168
185	0x3cea8268	0.028626636
186	0xbd500f48	-0.050795823
187	0xbd4157b8	-0.047202796
188	0x3cf346e7	0.029696895
189	0xbd856d02	-0.06514932
190	0xbd60c02c	-0.05487077
191	0xbd87e193	-0.06634822
192	0xbd8a003d	-0.06738327
193	0xbd0e0486	-0.034672283
194	0xbc5dec15	-0.013545056
195	0x3ad52639	0.0016262002
196	0xbd755f97	-0.059905615
197	0x3dfcc41f	0.12342095
198	0x3d137f0f	0.036009844
199	0x3bec27c4	0.007206889
200	0xbd40f1cb	-0.04710559
201	0xbd4a105f	-0.04933202
202	0xbd6764cb	-0.056492608
203	0xbb53d7b2	-0.003232461
204	0xbe225c30	-0.15855479
205	0xbd9e9862	-0.077439085
206	0x3d86f87d	0.06590364
207	0x3d080d3f	0.033215757
208	0xbca6686b	-0.020313462
209	0xbda3764b	-0.07981547
210	0xbe1aee61	-0.15129997
211	0xbd4865ea	-0.048925318
212	0xb92d1bcc	-0.00016508921
213	0xbcd4eca1	-0.02599174
214	0x3dbcd4b4	0.092202574
215	0xbce01be0	-0.027357042
216	0x3d54898c	0.051888987
217	0xbc3f47d5	-0.011674841
218	0xbb80d421	-0.0039315377
219	0x3c77c4bd	0.01512259
220	0xbd0501b4	-0.032472327
221	0xbd27facb	-0.04101066
222	0xbd150b97	-0.036388006
223	0xbd261d2c	-0.040555164
224	0x3d052c67	0.03251305
225	0x3c915a53	0.017743265
226	0xbbc4f6d9	-0.006010872
227	0x3d3ee3ac	0.046603844
228	0xbdcb9ecf	-0.099424
229	0xbd253fa6	-0.040343903
230	0x3bb5d3fc	0.005548952
231	0xbd724168	-0.059144408
232	0x3d299556	0.041402183
233	0xbd1ca964	-0.03824748
234	0xba6557dc	-0.0008748749
235	0xbb6b248b	-0.0035879936
236	0xbb842eb3	-0.0040338873
237	0xbb8172e0	-0.0039504617
238	0xb974075d	-0.00023272396
239	0x3a80f9b3	0.0009840041
240	0xba2b5d58	-0.00065370416
241	0xb8b3e448	-8.577906e-05
242	0xbae8eb70	-0.0017770361
243	0xbaed86e1	-0.0018121862
244	0xbb2e81d3	-0.0026627674
245	0xbb71668c	-0.0036834804
246	0xbaa19624	-0.0012328071
247	0xbacc523d	-0.0015588474
248	0x3a1c452f	0.0005961237
249	0xb9cb65d6	-0.0003879505
250	0xbb1dad4f	-0.0024059599
251	0xba5f27a9	-0.0008512685
252	0xb78459f5	-1.5777516e-05
253	0xb89fc414	-7.618233e-05
254	0xb8021372	-3.1012525e-05
255	0xb800eb3d	-3.073666e-05

bias f4 [64]
0	0xbe0a3bcc	-0.13499373
1	0xbd565863	-0.052330386
2	0xbcfd3089	-0.030906932
3	0x3aa08341	0.0012246148
4	0xbd40c815	-0.047065813
5	0x3cf7efdc	0.030265741
6	0xba0bb634	-0.00053295796
7	0xbac6fc1b	-0.0015181334
8	0xbceb4bfb	-0.028722754
9	0xbb99cf42	-0.0046938965
10	0xbdd4c13f	-0.10388421
11	0xbd84e4af	-0.064889304
12	0xbda69ac7	-0.0813499
13	0xbb8fa544	-0.004383715
14	0xb815165e	-3.55452e-05
15	0xbc80642c	-0.015672766
16	0xbaf98133	-0.0019035697
17	0xb5a08c13	-1.1961696e-06
18	0xba1665c0	-0.0005737208
19	0xbc1201ae	-0.008911533
20	0xbb4d1d30	-0.0031297915
21	0x3ab2bc3f	0.0013636424
22	0xbaf9822f	-0.001903599
23	0xbefce772	-0.4939533
24	0xbd505fa5	-0.050872464
25	0xba1f2f86	-0.000607245
26	0xbb12c208	-0.0022393484
27	0xbbda5e83	-0.0066640987
28	0xb888e9fb	-6.5285676e-05
29	0xbd480eb8	-0.048842162
30	0xbcad1833	-0.021129703
31	0xb99ce242	-0.00029923214
32	0xbd522594	-0.05130537
33	0xbcaa8a4c	-0.020817898
34	0xbcbfbc77	-0.023405297
35	0xbd14f63e	-0.036367647
36	0x3bfd8cd0	0.0077377334
37	0xbdf6da7b	-0.120533906
38	0xbb404b0a	-0.0029341602
39	0xbc698ee9	-0.014255264
40	0xbb2e8a4c	-0.0026632724
41	0xbc452138	-0.012031846
42	0xbcec8b20	-0.028874934
43	0xbc891736	-0.0167347
44	0xbcca8fe6	-0.02472682
45	0x3d43ce95	0.047804434
46	0xbe2883bc	-0.16456503
47	0xbcbac582	-0.022799257
48	0xbb88e7a9	-0.0041780067
49	0x3e6dd733	0.23226623
50	0xbc428046	-0.011871403
51	0xbd4921b3	-0.049104404
52	0x3acafc78	0.0015486619
53	0xbd9c5eb5	-0.076352514
54	0xbbb96bdd	-0.0056586103
55	0xba7ac41b	-0.0009565965
56	0xbe0e3950	-0.1388905
57	0xbdcd3a68	-0.10020906
58	0xb7902ea6	-1.718786e-05
59	0xbb4f4817	-0.0031628662
60	0xbd87a0b0	-0.066224456
61	0xbb17267a	-0.0023063705
62	0xbd74ade7	-0.05973616
63	0xb61ed6bd	-2.3668829e-06

weight f4 [1, 64]
0	0x3d68f29d	0.056872
1	0xbcb2fc4b	-0.021848818
2	0x3b21f3ba	0.0024711923
3	0xbca8bf9c	-0.020599179
4	0x3c426779	0.01186549
5	0xbe03a60d	-0.12856312
6	0x3ae3d94b	0.0017383484
7	0x38e65f2c	0.00010984982
8	0x3ca939a6	0.020657372
9	0xbc331fa9	-0.010932841
10	0xbd13f7ca	-0.036124982
11	0x3d7e94f8	0.062153786
12	0x3d324bc6	0.043529294
13	0xbb1b9325	-0.0023738828
14	0xb7ec3e64	-2.8162445e-05
15	0xbafcfc5f	-0.0019301287
16	0xba62335e	-0.000862887
17	0x3351a45d	4.8811092e-08
18	0xb9597258	-0.00020737329
19	0x3b5f2d82	0.0034054224
20	0xba24f779	-0.000629298
21	0xb8196ae9	-3.657761e-05
22	0xb96015e2	-0.00021370457
23	0x3e4f15af	0.20223115
24	0xbcef2f0e	-0.029197242
25	0x38c8685d	9.556182e-05
26	0xbacfbcce	-0.0015849115
27	0x3a89c65a	0.0010511384
28	0x36c21792	5.7843945e-06
29	0xbc5635a0	-0.013074309
30	0xbd8de9e4	-0.06929377
31	0xb77f35ed	-1.521174e-05
32	0x3d2a6bea	0.04160682
33	0x3c087750	0.008329228
34	0x3bdbdef7	0.006709929
35	0x3c274f58	0.010211788
36	0xbcad8c2f	-0.021185009
37	0xbce9c22e	-0.028534975
38	0x39d72d04	0.00041041535
39	0x3bbfbcfb	0.0058513856
40	0xba6b2ce7	-0.00089712295
41	0xbb60d4aa	-0.0034306445
42	0xbbf40ddf	-0.0074479426
43	0x3b7ee7cf	0.0038895493
44	0x3c914387	0.017732395
45	0xbd63bd18	-0.055600256
46	0x3dfca15c	0.12335464
47	0x3c972c2a	0.018453676
48	0xb98ee4d2	-0.00027254835
49	0xbe1f5f2b	-0.15563647
50	0xb9c1a8a2	-0.0003693747
51	0x3ab49bb2	0.0013779311
52	0xbc3ef943	-0.011656108
53	0x3d24ed9b	0.04026566
54	0xb9c3e252	-0.0003736192
55	0x39fb0ad8	0.0004788253
56	0xba0767cd	-0.0005165309
57	0xbc87e05f	-0.01658648
58	0xb7a14ce1	-1.9228495e-05
59	0xbaf8f0d7	-0.0018992674
60	0xbc01ccb2	-0.007922338
61	0xbb3bb01f	-0.0028638912
62	0x3ce0f549	0.027460711
63	0xb4a51e50	-3.07557e-07
