rescourse/代码/第三节，回归实战代码/covid/model_save1/best_model.pth (torch, 26527 bytes, 3 tensors)

weight f4 [64, 93]
000000 4f 6f ba bd 2e 32 77 3d ec 98 cd 3d 7e 29 0e bd
       -0.09103262 0.06035059 0.10038933 -0.03470754
000010 0a e9 95 bd 41 04 09 3e 11 f0 99 3d 71 ba 6e 3d
       -0.07319839 0.13380529 0.07516492 0.058283273
000020 f4 63 29 3d 0f 5c 2d be c9 f2 04 be 0f f7 16 bd
       0.04135509 -0.16929649 -0.1298324 -0.036856707
000030 00 bf 4e be a5 42 f1 bd 44 02 8b bd 0b 07 2a 3e
       -0.20190048 -0.117802896 -0.067875415 0.16604249
000040 ef 7f ab 3d d8 d7 b0 bd 11 e2 b9 3d e3 6b f5 bd
       0.08374011 -0.08634919 0.09076322 -0.119834684
000050 a3 36 1f be 8b 24 f4 bd 74 8e 18 3e 4d 64 0d bc
       -0.15548186 -0.119210325 0.14898092 -0.008629871
000060 51 6f 1d be 92 cf ef 3d 2a 0d bb bc 74 78 81 3d
       -0.15374495 0.11709513 -0.022833426 0.06321803
000070 85 64 03 3e ca 55 9e 3d 73 da 1c be 99 19 85 3c
       0.12831314 0.07731207 -0.15317707 0.016247557
000080 cd 9c f9 bc 4e 48 2e be f1 38 e3 3d d3 9b 18 3c
       -0.030470276 -0.1701977 0.11094845 0.009314495
000090 69 10 e9 3d 86 ac f9 bd bd b8 45 ba 41 7d 7c 3d
       0.11380083 -0.12191109 -0.0007542482 0.06164289
0000a0 10 27 2c 3d 71 78 07 3e 61 f0 25 be 7b 41 a1 bc
       0.04202944 0.13229539 -0.16204979 -0.019684544
0000b0 d4 4e 80 bb fb 7d 98 bd 47 f8 62 bd 88 bc eb bc
       -0.003915647 -0.07445904 -0.055412557 -0.028776422
0000c0 f3 64 4b 3d 96 e1 2b bd f6 e2 d1 bb a7 ed c0 bd
       0.04965682 -0.041963182 -0.0064052297 -0.094203286
0000d0 cc ae 34 bc 8b a9 3f 3c 80 b1 66 bd b7 cc a9 bd
       -0.011028003 0.011698137 -0.05632162 -0.082909994
0000e0 32 ef 57 3c c4 5e 4e bc 7b 32 74 3d ff 39 f2 3d
       0.013179587 -0.012595836 0.059618454 0.11827468
0000f0 23 6e 93 bd bf f4 3a be 0c 10 fb 3d 80 7f 2a be
       -0.07198741 -0.18257426 0.1225892 -0.166502
000100 6c e9 c0 3b af 3e e5 3c c5 80 6c 3d 40 6c 3e bd
       0.005887201 0.027983991 0.05773999 -0.046489954
000110 9a 51 80 bd f6 ca 8e 3b 34 5a fb 3d 5e b5 4f 3d
       -0.06265564 0.004357691 0.12273064 0.050710075
000120 d1 25 ce bc 5b 1f 94 3d 31 2f 10 bd 98 8b 60 3d
       -0.025164517 0.07232543 -0.035201255 0.054820627
000130 03 62 3b 3e 7d 18 3a 3e bc 2e c2 bc 2d 4e 03 be
       0.18299107 0.18173404 -0.023703925 -0.1282279
000140 55 e1 db 3d 4c 71 01 be 3f b0 36 3d 9a bd 11 be
       0.10736338 -0.12640876 0.044601675 -0.14232484
000150 f9 87 bd 3d cf db a0 bd 8a b3 0e bd 66 02 08 3d
       0.0925445 -0.07854425 -0.03483919 0.033205412
000160 8d 82 86 3d 1b c7 45 bd 15 3f a0 3c 97 0a 1c bd
       0.06567869 -0.048285585 0.01956133 -0.038096037
000170 58 3b 51 3d c5 72 c0 bd 70 9c 89 bc 40 82 18 3e
       0.051081985 -0.093968906 -0.016798228 0.14893436
000180 c2 bc 1b be a2 12 94 bd 1f 62 52 3b 93 db c7 bd
       -0.15208724 -0.072301164 0.0032101942 -0.09758677
000190 ef a1 36 bd 74 65 b4 3c b0 2c 98 3c 89 65 3a 3e
       -0.044588026 0.022021033 0.018575996 0.18202795
0001a0 1d 15 fc 3d 7e 4c 16 be a7 bc 39 be 88 95 c1 3d
       0.123087145 -0.14677617 -0.18138371 0.09452349
0001b0 51 64 78 3e e9 8e 28 bd 54 ea 24 3d 2e eb f3 bd
       0.24257018 -0.041151915 0.040262535 -0.11910091
0001c0 12 5d cb 3c c1 5c 5a 3d b2 29 27 be 01 a0 1c 3e
       0.024824653 0.053311113 -0.16324499 0.15295412
0001d0 15 05 54 3e 33 1b cd bd f1 21 47 be 83 2c 39 3d
       0.20705064 -0.100149535 -0.19446541 0.045208465
0001e0 46 01 80 3b ef 94 56 bd aa 33 f4 3c 33 25 1a bd
       0.003906402 -0.052388128 0.029809792 -0.037633132
0001f0 af a9 22 be 96 90 0f 3d fd 4c 79 3d 90 61 34 3e
       -0.15885042 0.035049997 0.060864437 0.17615342
000200 0d 05 1b 3e 5c 49 59 3d 99 2c ba bb 05 b9 4b 39
       0.15138645 0.053048477 -0.005681586 0.00019428514
000210 9f b8 01 be f3 f0 93 bd 0c d8 ac 3d 9d e9 20 3d
       -0.12668084 -0.07223692 0.08439645 0.03928529
000220 32 c2 a4 bc d5 09 ad bd 26 93 d3 3d 71 b9 06 be
       -0.02011213 -0.08449141 0.10330801 -0.13156678
000230 4a a2 b3 bd 0c ec f3 3d 08 32 b9 bc d3 5c cc 3b
       -0.087711886 0.11910257 -0.022606865 0.0062366514
000240 3b 52 cb bd 22 d1 19 be 08 24 53 bd 4f 26 ab bd
       -0.099277936 -0.15021184 -0.051548034 -0.08356916
000250 f8 33 75 bc 5f a6 4d 3e e1 a4 b0 bc ae cb 05 be
       -0.014966004 0.20082997 -0.021562995 -0.13065979
000260 5b 98 a1 3c 78 9f 5d 3d 9b 01 36 3c 80 d0 a6 bd
       0.019725969 0.05410716 0.011108781 -0.08145237
000270 85 de 17 3d 32 3e bc bc 33 43 2b 3d 36 33 37 bd
       0.037077446 -0.022978876 0.041812133 -0.044726573
000280 6d e4 7e 3d f6 be c7 3d 10 e4 24 3d 2b 02 9d bd
       0.062229563 0.0975322 0.04025656 -0.07666429
000290 7f 84 dc bd d3 a3 ac 3d ef 03 3b 3d a1 bf 45 3e
       -0.10767459 0.084296845 0.04565805 0.19311382
0002a0 e7 8f a4 3e 06 12 ad 3b ce 47 45 bd bb cb f5 3d
       0.3214104 0.0052816896 -0.04816418 0.12001749
0002b0 74 60 18 bd be ca 77 bd c9 dd 8f 3c c3 13 a0 bd
       -0.03720136 -0.060496084 0.01756181 -0.07816269
0002c0 d0 fd fd bd e5 b0 c0 bc d8 e0 5b 3d 56 1b 3d bc
       -0.124019265 -0.02352185 0.053681225 -0.011542162
0002d0 4f 5c 8e bd 92 36 c9 bc 1c e7 bd 3c dd da b3 bb
       -0.069512 -0.024562154 0.02318149 -0.005488737
0002e0 1f 47 46 bd fe 0c 18 3e 4e 36 c6 bd c0 07 08 3e
       -0.04840767 0.14848706 -0.096783265 0.13284206
0002f0 f9 ff 22 3d e3 91 92 bd 94 06 81 3d 35 c1 e1 3d
       0.039794896 -0.07156732 0.06300083 0.110231794
000300 04 78 06 3e 44 1f 1c 3e 7a 96 a9 bc c2 15 69 3e
       0.1313172 0.15246302 -0.020701636 0.22762206
000310 cd af 00 be 16 1c 70 bd 75 4c 32 be d3 b6 14 be
       -0.12567063 -0.058620535 -0.17411979 -0.14522867
000320 aa ca 1b 3d 3e 1f 7f bd 03 83 62 3d 8e e2 c4 3d
       0.038035072 -0.062285654 0.055300724 0.096135244
000330 2f 4e df 3d 2f bd 16 be 1b dc 94 bd 23 af 4e 3d
       0.10903584 -0.14720605 -0.07268544 0.050459992
000340 db d7 4f 3e a7 c8 04 3e 5f d8 14 3e 70 3f a2 3d
       0.20297186 0.12967168 0.14535664 0.07922256
000350 b5 4e 6b bc 64 a4 d1 bd 43 11 5b bd fb 2e 2c be
       -0.014362027 -0.10236433 -0.05348326 -0.16814797
000360 fd 4b 8d 3c d0 0b a1 3d d9 e0 72 3d 77 21 0f 3e
       0.017248148 0.07863581 0.059296463 0.1397761
000370 a9 a3 5b be 79 3c 64 3d 62 cd 50 be 9e 07 24 3d
       -0.2144915 0.055721734 -0.20390847 0.040046327
000380 f8 72 09 3e ec 18 80 bd c0 e2 17 3d 5f 30 bc 3d
       0.13422763 -0.062547535 0.03708148 0.091889136
000390 f7 e1 89 bc 0f 38 da bc af 31 52 bd e9 ec f2 3d
       -0.016831381 -0.026638059 -0.051316913 0.11861593
0003a0 50 b8 0c be a3 ba fc bd 6b 5d 4f bd 95 00 0e be
       -0.13742185 -0.12340286 -0.0506262 -0.1386741
0003b0 2e 9d d8 bd 93 3c 73 3d 5e 45 70 bc 51 f6 10 be
       -0.10576855 0.05938394 -0.014664976 -0.14156462
0003c0 37 06 aa bd 54 fe 0c be e4 3f e6 bd a5 9b 7f 3c
       -0.08301967 -0.13768893 -0.11242655 0.015601073
0003d0 e1 94 83 bd 4a 46 5b bd 32 4b 18 3d c2 27 c0 bd
       -0.06424881 -0.05353383 0.037181087 -0.09382583
0003e0 70 8b 70 bc 89 3a ae 3d 4f 9f 46 bd 03 90 13 3d
       -0.014681682 0.085072584 -0.048491772 0.036026012
0003f0 c2 ad a9 bd 50 aa af bd af e5 3d bd bc 44 f1 3c
       -0.08285095 -0.085774064 -0.04636162 0.02945172

bias f4 [64]
000000 66 cd f6 3c fc 81 d8 3d 61 94 7b 3d 6c 64 d7 bd
       0.030127238 0.105716676 0.061420802 -0.10517201
000010 30 0e a6 3d 84 11 6d 3e e0 e2 01 bc 6f cc 69 3e
       0.08108175 0.23151213 -0.007927626 0.22831891
000020 35 39 ad 3e 1f c5 e3 3d 82 46 ec 3e 2a b7 bc bd
       0.33832708 0.11121582 0.46147543 -0.09214623
000030 0f 1f cf 3e 92 a6 33 3e 44 7a 34 3e 3d 99 8f 3d
       0.40453383 0.1754401 0.17624766 0.0701165
000040 81 13 ed 3d 91 1a 3c 3e 91 47 d0 3e 39 17 57 3e
       0.11575986 0.1836951 0.406796 0.21004952
000050 a9 b9 d3 3e 08 00 0e bc 0d 41 a8 3d 54 17 ce 3e
       0.41352585 -0.008667 0.082155325 0.40252173
000060 ea 1b 84 3e c5 d8 da 3d 4c 50 bc 3e 4d 8c 3c 3e
       0.25802547 0.10685877 0.36780012 0.18412896
000070 be 6f ee 3d 81 2b 09 3e 28 ac 68 3e 00 ec 48 3e
       0.11642407 0.13395502 0.22721922 0.19621277
000080 51 9d 1b 3d c3 5a a2 3d e2 3b 32 bd 80 45 6c 3d
       0.037991825 0.07927468 -0.04351414 0.057683468
000090 60 51 6f bd 44 5e a1 3d d3 5b 48 be f2 d8 61 3e
       -0.058427215 0.07879308 -0.19566278 0.22055414
0000a0 e5 fb c3 3d 13 fd 15 bd fa 4f 0e bd 62 01 24 3e
       0.095695294 -0.036618304 -0.03474424 0.16016153
0000b0 45 95 06 3d 94 0e 73 3e 0b d4 9a 3e d7 9c b0 3e
       0.0328572 0.2373603 0.302399 0.3449466
0000c0 43 10 e8 bc 02 5f be 3d 91 ec bc 3e 14 45 c9 3e
       -0.028328067 0.09295465 0.36899236 0.39310515
0000d0 88 b9 d2 3e d8 92 fc 3e 58 03 41 3d 25 15 f2 3e
       0.41157174 0.49330783 0.04712233 0.47281757
0000e0 98 27 bd 3e b7 31 a7 3c ac c0 b2 bd 22 cc 65 3e
       0.3694427 0.020409448 -0.087281555 0.22441152
0000f0 25 cf c4 3e 41 69 81 3d a6 a5 52 3d 6d 93 e0 3c
       0.3843929 0.06318904 0.051427506 0.027414048

weight f4 [1, 64]
000000 9f 11 a9 3e 06 f2 a3 3e 1f 78 aa 3e 7d 98 8e 3e
       0.33021256 0.32020587 0.3329477 0.27850714
000010 23 a3 32 3e 12 ab 1d 3e 03 64 d9 3d 76 65 98 3e
       0.17445044 0.1539729 0.10614779 0.2976491
000020 c2 9e a7 3e 63 ef 60 3e d1 30 70 3e 16 68 51 3e
       0.3273831 0.21966319 0.23456122 0.20449862
000030 6d 39 83 3e 8b 9f 8d 3e 0d 34 a3 3e 30 ec ab 3e
       0.2562975 0.27660784 0.3187565 0.33578634
000040 43 06 67 3e 55 5e 72 3e 3e b3 bd 3e c2 fc 83 3e
       0.22560982 0.23668797 0.37050813 0.25778776
000050 df 8a dc 3e 92 09 03 3e c0 52 bd 3e 92 6d bf 3e
       0.430747 0.1279662 0.36977196 0.37388283
000060 5f b0 b4 3e 1d 1f 92 3e 37 0c bb 3e 1e 1b cc 3e
       0.3529081 0.28539363 0.36532757 0.3986444
000070 b1 2b 9b 3c 9f 2c ac 3e ce b3 c2 3e 4e b9 92 3e
       0.018941732 0.33627793 0.38027805 0.28657
000080 ea d2 0f 3e 05 7d 81 3e b1 31 95 3e 9d 84 8c 3e
       0.14045301 0.25290695 0.29139474 0.27444926
000090 7c df 87 3e 26 6d 58 3e 55 36 cb 3e b1 08 9c 3e
       0.26537693 0.21135387 0.3968989 0.3047538
0000a0 d3 e2 a1 3e 68 dc 4f 3e 9c 5b fb 3e b7 aa b2 3e
       0.31618366 0.20298922 0.4909333 0.3489587
0000b0 82 30 a1 3e 38 92 d6 3e df 58 b6 3e e5 07 a6 3e
       0.3148232 0.4190843 0.35614678 0.32427898
0000c0 a2 a5 1d 3e 30 b3 fc 3d c6 32 a2 3e 43 7b af 3e
       0.15395215 0.12338865 0.31679362 0.3427373
0000d0 01 8c df 3e 3d 40 ed 3e ed ca 4f 3e 17 c3 c5 3e
       0.43661502 0.46338072 0.20292254 0.38625404
0000e0 f6 f1 89 3e 34 77 62 3e 6b 28 0e 3e af 3d be 3e
       0.26942414 0.22115785 0.13882606 0.37156436
0000f0 05 89 ed 3e 9c b1 26 3e 87 ee 97 3e 93 49 93 3e
       0.463936 0.1627869 0.2967417 0.2876707
