rescourse/代码/第三节，回归实战代码/covid/model_save1/best_model.pth (torch, 26527 bytes, 3 tensors)

weight f4 [64, 93]
00000000: dd02 0abe d24b bd3d d58f 183e b098 64bd
00000010: 9d4e 823d 5549 98bd 0371 0e3e 8c5e de3c
00000020: ed42 803d 02fa 393d 7655 ce3b 0aba b9bc
00000030: 98d3 2dbe f785 38be d43a fbbd e82f 203e
00000040: 2780 68bd cb0b f4bd 1ca2 173e 2d82 2f3e
00000050: 28ec f0bd 3997 af3d 7c73 09be d19c 5c3b
00000060: bd35 80bd 2d15 e43d 79fd dc3d f8fe 203d
00000070: 1567 b73c a6af 38bd b814 6d3d ddd8 fd3d
00000080: 40e2 02be a429 0ebd 1476 2ebd 4b6d 8c3a
00000090: 2225 2abe df58 01be d519 71ba 3fd4 f9bd
000000a0: 8094 053d 51b8 913d 3312 16bd 09f8 41bd
000000b0: 328a 753d a667 833d e030 13be 9977 263c
000000c0: 6f06 33bb 0ef2 b8bd 01fe 2b3d 48cf 98bd
000000d0: 062a 1d3c 1b1f a4bd 6b1e acbd e8d1 c73d
000000e0: b4ac c03c be27 6f3d 8a49 56bd 8eb8 9ebd
000000f0: 799d 803d 71bc 823d 3392 9d3d dda9 c7bd
00000100: 699d 663d 208a c5bd 6fee 6b3c 12b1 2ebd
00000110: 4a15 48bb d84b 28bc 0a00 833b 1ee0 733d
00000120: c646 d53d d1ab 863d 5e5f d2bd f46b 8e3d
00000130: ae31 123e faed 04bd 3e50 5c3d 3919 ce3c
00000140: bfad 0a3d 3811 d0bd 32e1 1abe fa53 08bd
00000150: df31 783d 834d 903d c037 813d fd55 3fbd
00000160: bd9c 903d 50ff d03d 8649 d13c a7f4 b8bd
00000170: 1edd f83d a076 523e 30ba ccbd 641c 65bd
00000180: 5d14 b93c c891 61bd 260d 65be bec9 64bd
00000190: 08d5 e83d 7a82 d6bd f151 013b 5fd0 f33d
000001a0: 61b2 7b3c 4993 913e c948 663e a9ff 7ebc
000001b0: 334d 313d 5595 15bd 69b4 16be 3c57 87bc
000001c0: c234 583d 66ed f13d 5983 0a3e 7460 733d
000001d0: 20ed dfbd 3b7d 2dba 6867 cebe d09e 49bd
000001e0: e656 013d cfbf 243d 848d 573c 6297 91bc
000001f0: 769a b7bd 9cf9 67be b413 693d 937a 393e
00000200: 30ce 243e 8e65 593e 03ab 093d 7b46 48be
00000210: c81c a2bd 06bf 78bd ad3f a1bd e619 6d3d
00000220: c3ca 603b 023f febc 48dc 5e3d 0dc2 7dbd
00000230: a528 323e 3c8b e83d 4f36 073e 0e5a 963d
00000240: d74c 4bbe 3724 3b3d f26a d43d 1e63 fdbd
00000250: 095b 8d3d ce38 55be b093 9b3e add8 47bd
00000260: a6ca bcbc 4f83 3ebd 5e37 473d 8e4d 84bd
00000270: ffe2 45bd e56d 0c3e c422 f83d 6f89 103e
00000280: ab1e 023e b090 533e 4894 98bd 911d b3bc
00000290: 2f55 bdbb c41a acbc 867b 93bc 4d0b cabd
000002a0: 7800 4c3f ac70 753c 3241 403e 317c 183e
000002b0: 11c8 313e 15e5 143d 3df6 c9bc e0c1 afbd
000002c0: 306f fdbd 97cf f13d 6ee6 0cbc 0647 163e
000002d0: d514 08be 7b18 aebd d84d 68bd 4272 ce3d
000002e0: 41e5 2bbd 2082 2abe 49a6 8f3e 37f4 723b
000002f0: 070b d8bd 726c d23b 5009 bdbd ac4a d1bc
00000300: ef2c c7bd f06c dfbd eeef 793e 3112 8ebc
00000310: 5e69 4b3e 019a f13d da3e 0ebe e794 5d3e
00000320: c56a 9b3d 0c5f ab3d 0956 0cbd 6e1e 9dbd
00000330: c095 d2bc f82b 05be eccf c5bc 8b9f da3d
00000340: 7176 453e bfb2 0ebd b761 f6bd e030 bfbd
00000350: 88fd 0bbe 2503 373e c69a aabc 44f2 c2bd
00000360: 6a98 c1bd e5a7 633e 1448 8bbd 57e4 f53d
00000370: c3a0 80bd 5959 84bd 749d 06be 0f0f 82bd
00000380: 93c4 863d 0a1f a6bd 4ff3 f2bc f4a1 25bd
00000390: a360 ff3c 2a0d e5bd cf7c 2b3d 14f2 013e
000003a0: 54ca 0bbc 648c 293d e712 49bd 92ad 2abd
000003b0: b41f 45bd 67d4 763b 13a3 20bd d3a6 af3c
000003c0: d85e ea3c 7e38 a73b f66a d0bd c37e c43d
000003d0: cc52 51bd 9fcf 54be 76b9 0bbd 538d 8c3d
000003e0: a09f a63d 0bf6 b73d bdb7 8a3d f66b a4bd
000003f0: 0faf 81bd 4d24 33bc 8f26 7abc 78cd d63c
-0.13477655 0.09242977 0.14898618 -0.055809677 0.063626505 -0.07435862 0.13910298 0.027144693
0.06262765 0.04540444 0.006296809 -0.022671718 -0.16975248 -0.18019854 -0.1226708 0.15643275
-0.05676284 -0.11916312 0.14807934 0.17139502 -0.11763793 0.08573765 -0.1342296 0.0033662806
-0.0626025 0.111368515 0.107905336 0.039305657 0.02238802 -0.045089386 0.057881087 0.12394879
-0.1278162 -0.03470768 -0.042593077 0.0010713724 -0.16615728 -0.12631558 -0.00091972697 -0.12198686
0.032612324 0.07115234 -0.03663845 -0.047355685 0.059946246 0.06416254 -0.14374113 0.01016035
-0.0027317067 -0.09030543 0.041990284 -0.07461411 0.009592539 -0.080137454 -0.08404239 0.09756833
0.023519851 0.05838751 -0.052316226 -0.07750045 0.062800355 0.063835986 0.07693901 -0.09749196
0.05630246 -0.09645486 0.014400109 -0.042649336 -0.0030530267 -0.010271989 0.0039978074 0.059539907
0.104138896 0.0657574 -0.10272096 0.06954184 0.14276764 -0.032453515 0.053787462 0.025158511
0.033857103 -0.10159534 -0.15124968 -0.03328321 0.060594436 0.07046034 0.063094616 -0.046712864
0.070611455 0.10204947 0.025547754 -0.09031039 0.1215155 0.20553064 -0.0999645 -0.05593528
0.022592718 -0.05507067 -0.22368297 -0.05585646 0.113687575 -0.10474105 0.0019732679 0.11904978
0.015362353 0.28432682 0.22488703 -0.015563884 0.043286514 -0.036519367 -0.14717259 -0.016521089
0.05278469 0.11812858 0.13526668 0.059418157 -0.109339 -0.0006618087 -0.40313268 -0.04922372
0.031577013 0.040221985 0.013156299 -0.01777238 -0.08965008 -0.22653812 0.056903556 0.18113165
0.1609428 0.21230146 0.033610355 -0.19558136 -0.07915646 -0.06072905 -0.07873473 0.057886027
0.0034300543 -0.031035904 0.054409295 -0.06195264 0.17398317 0.11354682 0.13204311 0.07341395
-0.19853531 0.045688834 0.10371961 -0.12372421 0.06902129 -0.2082245 0.30386114 -0.048790623
-0.023045849 -0.046511944 0.048636787 -0.06460105 -0.048312183 0.13713796 0.12116006 0.14114927
0.12707011 0.20660663 -0.074501574 -0.021864684 -0.005777977 -0.021008857 -0.018003237 -0.09865437
0.79688215 0.014980476 0.1877487 0.14891125 0.17361476 0.036351282 -0.024653548 -0.085819006
-0.12374723 0.11807173 -0.008599861 0.14675531 -0.13289197 -0.08500763 -0.056714863 0.10080387
-0.04196668 -0.16651201 0.28056553 0.0037071833 -0.10548978 0.006421619 -0.09230292 -0.025548302
-0.09725367 -0.1090945 0.24407932 -0.017342659 0.19864413 0.11796952 -0.13891163 0.21638833
0.07588724 0.08367738 -0.034261737 -0.076718196 -0.025706172 -0.13005054 -0.024146996 0.10674962
0.19283463 -0.034838434 -0.120303564 -0.09335494 -0.13670933 0.17872293 -0.020825755 -0.09518865
-0.09452899 0.22232015 -0.06800857 0.12006443 -0.06280663 -0.06462354 -0.13146001 -0.063505284
0.06580462 -0.08111389 -0.029657034 -0.040437654 0.03117401 -0.111841515 0.041867074 0.12690002
-0.0085321255 0.041393653 -0.049090292 -0.041669436 -0.048125938 0.0037663223 -0.03921802 0.021441853
0.028609678 0.00510317 -0.10176651 0.095944904 -0.051104352 -0.20782326 -0.034112416 0.06862893
0.08135915 0.08982476 0.067733265 -0.080284044 -0.06332218 -0.010933948 -0.015267982 0.026221022

bias f4 [64]
00000000: d804 e03d 071f ce3e 5baa cfbd 236d c53e
00000010: c373 9c3c afa2 603e cab1 1e3e bfee df3c
00000020: 4c3d a43d 3a25 553e 6b6e d73e 8379 1a3c
00000030: 27d5 a6bb 9fab 0d3e 6bbf f63e e7e7 28bd
00000040: cb9e f73d e209 02be 8b44 943e 6e0b d23e
00000050: f604 a53d 1e8f 993e 70dd b33d 56e1 d63c
00000060: 765b c73c 7781 0bbd 8152 bb3d 7513 ac3c
00000070: c731 bd3e 2f59 193f 13f4 133e 71f8 b3bc
00000080: ddc8 a03e fd6b b63e 0e8b d83d 0763 aebc
00000090: 2144 89bd 1c48 8dbc 3ba3 b93e caa1 03be
000000a0: 6f62 f93d e53b a73e 8960 1d3e c60e ed3e
000000b0: 307e 923e ef5a d33c 97b9 0d3f 73cb 4b3e
000000c0: 0df7 e93d eda6 0f3e e96f 663e 2d03 13be
000000d0: 9833 313e 8268 9abd 8df1 003e e305 853e
000000e0: 5d03 8e3e 22ca 9a3c b7a7 873d 34e3 94bd
000000f0: f128 d03e 97ee 133e ff03 c5bd 3f7c eb3d
0.10938424 0.40258047 -0.101399146 0.38559827 0.019098168 0.21937059 0.15497509 0.027335523
0.08019504 0.20814982 0.4207643 0.009428385 -0.0050913277 0.13835 0.48192915 -0.041236784
0.12090834 -0.12699082 0.28958544 0.41024345 0.08057587 0.29992002 0.0878247 0.026230495
0.024335604 -0.034059014 0.09146596 0.021005372 0.3695204 0.5990171 0.14448576 -0.021969052
0.31403247 0.35629264 0.105733976 -0.021287454 -0.06702448 -0.017246298 0.36257347 -0.12854686
0.12176978 0.32662883 0.15368856 0.46300334 0.28611898 0.025800196 0.5536131 0.19901828
0.11424074 0.14028521 0.22503628 -0.1435668 0.17304838 -0.075394645 0.12592144 0.25981054
0.2773694 0.018895213 0.06623786 -0.07269898 0.40656236 0.14446484 -0.09619903 0.114983074

weight f4 [1, 64]
00000000: f48e 6f3e 9e78 d23e e419 a83e ee3f bb3e
00000010: b10f 8b3e 0c7f 333e 6946 903e 9bb5 a03e
00000020: 1174 763e 8318 8e3e 8c15 d03e 8a17 913e
00000030: 2ff5 7e3e 946c 393e e745 f03e b63d aa3e
00000040: e339 793e 53f0 113e 09d2 c73e 00d0 cb3e
00000050: d376 513e c597 8a3e 72c2 bc3d f921 273e
00000060: cd27 003f c967 683e 5cef 313e a73d 883e
00000070: 03f4 bf3e bed0 d23e 0701 c33e a4ec b53e
00000080: fc55 a23e f2f0 713e 1c89 323e c9c9 9a3e
00000090: 9cd3 873e 8f06 973e 6869 b33e 991f 503e
000000a0: 4803 f43e 8332 b93e 8d21 4c3e 4d92 7d3e
000000b0: 67a0 e23e 1281 833e 2908 0d3f 2042 a73e
000000c0: 6b38 853e 440a 783e dba6 8c3e 90fc 8a3e
000000d0: 2d90 a83e b512 803e 75f4 be3e ed2d 683e
000000e0: aab0 a43e c181 a93d 8a82 7a3e be4d 893e
000000f0: c991 af3e 0f76 8d3e df45 513e 4027 b63e
0.23394376 0.4110765 0.32832253 0.36572212 0.2716041 0.17528933 0.2817872 0.31388554
0.24067713 0.27753076 0.4064144 0.2833827 0.24898218 0.18107826 0.4692833 0.33250207
0.24338488 0.14251833 0.39027432 0.3980713 0.20455484 0.27068916 0.09216775 0.16321553
0.5006073 0.22695841 0.17376465 0.26609537 0.37490854 0.41174883 0.3808672 0.35532105
0.31706226 0.2362707 0.17435116 0.30232075 0.26528633 0.2949719 0.35041356 0.20324554
0.47658753 0.3617135 0.19934674 0.2476284 0.44263002 0.2568441 0.55090576 0.32667637
0.26019606 0.24222666 0.2747105 0.27145815 0.32922497 0.25014272 0.3729588 0.2267377
0.32166034 0.08276702 0.24463859 0.26817125 0.34290913 0.27629134 0.2043681 0.3557682
